…
formation into a lower-dimensional space and then reconstruct it, losing detail in the process. To produce an image that closely resembles the original, we would need a more complex architecture, a different approach, or lots of epochs to capture enough detail.\n\n\nShow the code\nmodel_mlp = MLP(\n    in_features=2,\n    hidden_features=hidden_features,\n    hidden_layers=hidden_layers,\n    out_features=3,\n).to(device)\n\nprint(model_mlp)\nprint(\n    \"Number of parameters:\",\n    sum(p.numel() for p in model_mlp.parameters() if p.requires_grad),\n)\n\n\nMLP(\n  (net): Sequential(\n    (0): Linear(in_features=2, out_features=512, bias=True)\n    (1): ReLU()\n    (2): Linear(in_features=512, out_features=512, bias=True)\n    (3): ReLU()\n    (4): Linear(in_features=512, out_features=512, bias=True)\n    (5): ReLU()\n    (6): Linear(in_features=512, out_features=512, bias=True)\n    (7): ReLU()\n    (8): Linear(in_features=512, out_features=512, bias=True)\n    (9): ReLU()\n    (10): Linear(in_features=512, out_features=3, bias=True)\n  )\n)\nNumber of parameters: 1053699\n\n\nFinally we define the Adam optimiser and the Mean Squared Error (MSE) loss function. Remember the optimiser is responsible for updating the model’s parameters towards minimizing the loss function, while the MSE loss measures the difference between the model’s predictions and the target values (the original pixe
…
tion sets.\n\n\nShow the code\ndataset = dataset.train_test_split(test_size=0.1)\n\ndataset\n\n\nDatasetDict({\n    train: Dataset({\n        features: ['messages'],\n        num_rows: 18000\n    })\n    test: Dataset({\n        features: ['messages'],\n        num_rows: 2000\n    })\n})\n\n\nLet’s also look at the architecture of the model we are fine-tuning. It is important to have a sense of the model’s layers as this will directly impact how LoRA will be applied.\n\n\nShow the code\nfrom pprint import pprint\n\npprint(model)\n\n\nQwen2ForCausalLM(\n  (model): Qwen2Model(\n    (embed_tokens): Embedding(151936, 896)\n    (layers): ModuleList(\n      (0-23): 24 x Qwen2DecoderLayer(\n        (self_attn): Qwen2Attention(\n          (q_proj): Linear(in_features=896, out_features=896, bias=True)\n          (k_proj): Linear(in_features=896, out_features=128, bias=True)\n          (v_proj): Linear(in_features=896, out_features=128, bias=True)\n          (o_proj): Linear(in_features=896, out_features=896, bias=False)\n        )\n        (mlp): Qwen2MLP(\n          (gate_proj): Linear(in_features=896, out_features=4864, bias=False)\n          (up_proj): Linear(in_features=896, out_features=4864, bias=False)\n          (down_proj): Linear(in_features=4864, out_features=896, bias=False)\n          (act_fn): SiLU()\n        )\n        (input_layernorm): Qwen2RMSNorm((896,), eps=1e-06)\n        (post_attention_layernorm): Qwen2RMSNorm((896,), eps=1e-06)\n      )\n    )\n    (norm): Qwen2RMSNorm((896,), eps=1e-06)\n    (rotary_emb): Qwen2RotaryEmbedding()\n  )\n  (lm_head): Linear(in_features=896, out_features=151936, bias=False)\n)\n\n\nImagine the entire model as Qwen2ForCausalLM. At its core, we have Qwen2Model, which contains several parts. First, there’s an embedding layer (embed_tokens) that transforms tokens from a large vocabulary into 896-dimensional vectors. These vectors are then processed by 24 identical layers, which we can denote as L₀ to L₂₃ (each being a Qwe
…
